partial_model.pt (torch_old, 651433 bytes, 5 tensors)

lstm.weight_ih_l0 f4 [800, 1]
-0.42644364 0.09133409 0.2179256 -0.035758153 0.07681935 0.21822868 0.2070166 0.527279
0.3334886 0.537655 0.54486376 0.15469034 0.27803022 0.33303237 0.21717332 0.53678197
0.54741186 0.25366628 -0.122541435 -0.061313707 0.5493645 0.4158318 0.54149836 0.25760537
0.24703091 0.38143146 0.33449605 0.2079837 -0.23114616 0.55365396 0.30529648 -0.32129684
0.40518263 0.19972123 0.12426772 -0.4454342 0.5679594 0.13005461 0.5398158 0.21233012
0.1254515 0.10925196 0.5708263 0.093987375 0.22064668 0.5624913 -0.037481144 0.53370345
0.2910649 -0.098119386 -0.326396 0.32847336 0.54199445 -0.028511105 0.5317157 0.5410442
0.24396452 0.14975256 -0.0019641656 0.3419779 0.42803293 0.057590332 -0.4245683 0.5398165
0.2913576 0.33110458 -0.4535618 0.5171152 0.4075603 0.523234 0.35572517 -0.17105149
0.046710905 0.552343 0.3171072 0.2247292 -0.44758794 -0.07954102 0.3663578 0.14042796
0.5390293 0.08172502 0.567854 0.10408577 -0.28356162 0.4544039 0.038003623 0.024102623
0.10066016 0.21565112 -0.3014669 -0.30692646 0.25959063 0.579476 -0.101437144 0.40550005
0.07707458 0.35431072 0.12540537 -0.1739896 0.052478068 -0.16323686 -0.44958952 0.07124437
0.47372612 0.3061984 0.4408613 0.16079715 0.52857304 0.5440301 0.33143127 0.37390548
-0.15124495 0.56858045 0.1791123 0.5373625 0.40468144 0.39863145 0.38481328 0.52794915
0.28486943 0.30902973 0.00055908033 -0.5658913 0.5569452 0.5215798 0.12623638 0.25369456
0.3598215 0.5306277 0.5673661 0.28025758 0.25943282 0.020845812 0.5167358 0.23756272
-0.040380087 0.05204398 0.012640558 0.31722912 0.082858145 -0.27566487 0.4604506 0.2978008
0.3501443 0.062469788 -0.09887433 0.06323265 -0.3279734 0.04254309 0.065069534 0.56516516
0.5348299 0.4355842 0.34556597 -0.15398954 0.056473173 -0.07297429 0.49372178 0.16348799
-0.12132815 0.2869635 0.5551944 0.28939873 0.5205362 -0.10473609 0.5457015 -0.18721944
0.3214529 0.3708491 0.18550204 -0.31998155 0.45268202 0.54397064 0.2878896 0.023560245
0.17694537 -0.06370735 0.5390657 0.2849764 0.5405984 0.011372056 0.3013499 0.03161067
0.22128963 -0.049061675 0.35023308 0.5648449 -0.5306289 0.47001418 0.5288546 0.18830457
-0.35002482 0.46860293 0.5340297 -0.10847866 0.45313594 0.13802132 0.20926765 0.45824483
-0.25656027 0.10049806 -0.24508089 0.36223942 0.063491784 0.2881238 0.012592189 0.42086914
0.17482649 0.1615293 0.26626432 0.19698362 0.4318348 0.13220505 0.2519681 0.36945337
0.31806546 0.12622043 -0.46125358 -0.024308354 0.33387098 0.19516248 0.15800193 0.18500437
0.33969542 0.17056982 -0.009367684 0.14930181 -0.028685788 -0.024128996 0.20118397 -0.13883787
0.24794397 0.08401234 0.14227207 -0.2398048 0.53157336 0.1403971 0.17937525 0.20081247
0.16798982 0.03992267 -0.057689264 -0.5013708 0.28157255 0.32915428 -0.11299534 0.2620544
0.23183186 0.05286657 -0.41198045 0.1023374 0.41140875 -0.009128754 0.3064905 0.17207095
00000000: d256 dabe 5e0d bb3d e327 5f3e 2477 12bd
00000010: 7753 9d3d 5777 5f3e 29fc 533e c2fb 063f
00000020: 05bf aa3e c2a3 093f 317c 0b3f 2567 1e3e
00000030: fa59 8e3e 3883 aa3e af62 5e3e 8b6a 093f
00000040: 2f23 0c3f 8ce0 813e 01f7 fabd 1524 7bbd
00000050: 27a3 0c3f e8e7 d43e a39f 0a3f dae4 833e
00000060: acf5 7c3e fc4a c33e 1143 ab3e aef9 543e
00000070: 94b1 6cbe 44bc 0d3f d24f 9c3e 0581 a4be
00000080: 1974 cf3e b983 4c3e 1380 fe3d f40f e4be
00000090: ca65 113f 092d 053e 5e31 0a3f 116d 593e
000000a0: 5c76 003e 7ebf df3d ac21 123f 747c c03d
000000b0: 34f1 613e 6eff 0f3f d485 19bd caa0 083f
000000c0: 7506 953e d1f2 c8bd 601d a7be a92d a83e
000000d0: 26c0 0a3f 1f90 e9bc 851e 083f df81 0a3f
000000e0: d6d1 793e bc58 193e 3bb9 00bb ba17 af3e
000000f0: 2227 db3e d7e3 6b3d 0461 d9be 6a31 0a3f
00000100: d32c 953e 8a86 a93e 4139 e8be a961 043f
00000110: beab d03e aaf2 053f 9c21 b63e 1f28 2fbe
00000120: ef53 3f3d 5a66 0d3f e05b a23e 691f 663e
00000130: 3f2a e5be 67e6 a2bd 4093 bb3e 59cc 0f3e
00000140: d3fd 093f 735f a73d e15e 113f ec2a d53d
00000150: fd2e 91be a1a7 e83e b0a9 1b3d dd72 c53c
00000160: ea26 ce3d a6d3 5c3e df59 9abe 7725 9dbe
00000170: 10e9 843e 8a58 143f 47be cfbd b49d cf3e
00000180: 47d9 9d3d 3768 b53e 446a 003e 542a 32be
00000190: 3ef3 563d 9027 27be 9930 e6be 91e8 913d
000001a0: 3b8c f23e 09c6 9c3e 93b8 e13e 02a8 243e
000001b0: 9050 073f 8e45 0b3f 5cb1 a93e 8a70 bf3e
000001c0: f5df 1abe 7d8e 113f 3769 373e 9790 093f
000001d0: 6832 cf3e 6c19 cc3e 3f06 c53e ad27 073f
000001e0: 68da 913e 2539 9e3e 3f8f 123a 41de 10bf
000001f0: f693 0e3f 4186 053f 1c44 013e 41e4 813e
00000200: 863a b83e 38d7 073f e83e 113f ec7d 8f3e
00000210: 61d4 843e d6c4 aa3c cc48 043f a443 733e
00000220: 9765 25bd 122c 553d 581a 4f3c db6b a23e
00000230: 88b1 a93d f223 8dbe 2ec0 eb3e 5979 983e
00000240: 1d46 b33e 52e0 7f3d a07e cabd 1f80 813d
00000250: 21ec a7be aa41 2e3d 2d43 853d aaae 103f
00000260: 9dea 083f e404 df3e 06ee b03e 6faf 1dbe
00000270: 6a50 673d 8b73 95bd 1ac9 fc3e 6569 273e
00000280: e57a f8bd e1ec 923e 3821 0e3f 122c 943e
00000290: dc41 053f e07f d6bd 18b3 0b3f 74b6 3fbe
000002a0: 7995 a43e efdf bd3e 3ff4 3d3e 9fd4 a3be
000002b0: f0c5 e73e a941 0b3f 4466 933e 6a01 c13c
000002c0: 2b31 353e 0079 82bd 3600 0a3f 6de8 913e
000002d0: a864 0a3f dc51 3a3c 894a 9a3e 317a 013d
000002e0: c099 623e e5f4 48bd c051 b33e ad99 103f
000002f0: 4cd7 07bf b3a5 f03e 0463 073f ead2 403e
00000300: 7436 b3be b9ec ef3e 2cb6 083f 0f2a debd
00000310: 6f01 e83e 7655 0d3e 424a 563e 119f ea3e
00000320: de5b 83be edd1 cd3d 7cf6 7abe 7277 b93e
00000330: fb07 823d f684 933e 784f 4e3c 297c d73e
00000340: b705 333e f067 253e cc53 883e 13b6 493e
00000350: 7319 dd3e c360 073e f601 813e fe28 bd3e
00000360: 7ad9 a23e ee3f 013e 6e29 ecbe 5022 c7bc
00000370: 23f1 aa3e acd8 473e 42cb 213e c971 3d3e
00000380: 8fec ad3e dba9 2e3e ea7a 19bc 93e2 183e
00000390: 75fe eabc 2caa c5bc 2c03 4e3e 842b 0ebe
000003a0: 06e5 7d3e a90e ac3d c5af 113e 648f 75be
000003b0: 3115 083f 42c4 0f3e 25ae 373e c9a1 4d3e
000003c0: 8605 2c3e f485 233d 944b 6cbd d659 00bf
000003d0: 472a 903e e986 a83e 1a6a e7bd ff2b 863e
000003e0: 5565 6d3e 9e8a 583d 1aef d2be 4596 d13d
000003f0: 2ba4 d23e c590 15bc 53ec 9c3e 5e33 303e

lstm.weight_hh_l0 f4 [800, 200]
-0.114657365 0.27626806 0.0001431191 -0.10329955 -0.32632494 0.13742882 -0.16391441 0.20549014
-0.27718323 -0.04703305 -0.103022486 0.31240705 -0.0008887601 0.020540189 -0.13030161 0.63910526
0.2659275 0.19701496 0.120143145 0.25162667 0.67739457 -0.30070114 -0.19124065 -0.105411075
-0.19426127 -0.4698132 -0.19787662 0.36610684 0.61049604 0.001144 0.7323097 0.19504598
-0.07749756 0.19179355 -0.32749903 -0.24748743 -0.07202849 -0.25961432 -0.3872072 0.12432121
-0.22746497 0.23322025 0.49900222 0.11080276 -0.3886233 0.11105759 -0.25274602 -0.56626695
0.06263366 -0.5559537 -0.1559652 0.34243858 -0.10079352 -0.40464178 -0.3162616 -0.35604724
-0.45945922 -0.79813504 0.08417811 0.5368856 -0.4526178 0.430306 -0.0042566154 -0.51565707
-0.088211656 -0.2850274 -0.06666019 0.06631537 0.23870263 -0.33113143 0.33698055 -0.34854528
0.06489138 -0.3656726 0.12155649 0.06320221 0.28256872 -0.05062264 0.31051433 -0.1658747
-0.003838377 -0.10241088 -0.17130119 0.14658754 0.31737903 0.26057857 0.09190551 0.21936056
-0.3777652 0.28015697 -0.015153134 -0.0619195 0.26027653 -0.34912893 0.13300325 -0.2579595
0.2502069 0.39131692 0.15209849 -0.037682343 0.033511464 -0.6615738 0.14544417 0.06342452
0.24355578 0.07139407 -0.001651973 0.12617688 -0.30078533 0.10381332 0.70176196 0.25879738
-0.27142933 0.6140716 -0.1409324 0.06748106 -0.1462768 0.026969358 0.13256145 -0.5478738
0.07879109 0.31379697 -0.14326784 0.045994043 0.5592147 0.6687716 0.038018264 -0.55402917
0.3125524 0.021639619 0.35386974 -0.1997586 0.25193685 -0.44207597 -0.1537312 -0.20085312
0.21087313 0.7308305 0.32433066 -0.118586764 -0.3880079 0.025036898 -0.07141829 -0.112549536
-0.5187756 -0.03521544 -0.05611236 0.13771273 -0.19318163 0.6715376 -0.27267072 0.26005626
-0.4540878 -0.10680085 -0.20966156 0.59818065 0.12772366 0.04590186 0.08322712 0.3350668
-0.5166044 -0.3498904 0.2461737 0.3976489 -0.51397663 -0.078074254 0.648644 0.07893339
-0.11974165 0.34858647 -0.05827801 0.102788806 -0.34416702 -0.16737662 -0.16542353 -0.13597426
-0.454063 0.026934514 -0.021298118 -0.046533108 -0.53344756 0.2254681 0.04644028 -0.3871888
-0.04178329 0.23120509 0.33957812 -0.046106283 -0.13783117 -0.55722815 0.34466776 0.2679889
0.40648612 -0.089151695 -0.36379978 0.27741086 0.45691547 0.6420902 -0.761474 0.52661055
-0.14686814 -0.25953865 -0.64047724 0.07389613 -0.1579101 0.037544128 0.88831437 1.1517801
0.8241327 -0.23593375 -0.469576 -0.6284738 0.29749784 -0.06295361 -0.24708073 0.5161002
-0.64851016 0.18214384 -0.22218217 -0.23619685 0.08999353 -0.2736937 0.96123177 0.27420887
-0.7162135 0.5822226 0.63612586 0.0911186 -0.90754455 0.7067385 -0.5318125 0.11477169
-0.4901487 -0.2867964 0.28733897 -0.0055182213 0.14983839 0.57448626 0.64602554 0.044527445
-0.13501908 -0.34154126 -0.72643995 -0.3664139 0.8031571 -0.26214394 -0.04623422 0.08270488
-0.14861336 0.29398206 -0.3147261 0.10316119 -0.2899031 0.27695364 0.5909926 0.48986024
00000000: 7bd1 eabd 0273 8d3e 3e12 1639 b78e d3bd
00000010: 1014 a7be 24ba 0c3e 2ed9 27be 026c 523e
00000020: f6ea 8dbe baa5 40bd 74fd d2bd d1f3 9f3e
00000030: aefb 68ba e643 a83c c96d 05be 679c 233f
00000040: a627 883e 4abe 493e 9c0d f63d 36d5 803e
00000050: bb69 2d3f 80f5 99be 97d4 43be c3e1 d7bd
00000060: 6dec 46be 5b8b f0be 2ba0 4abe 5b72 bb3e
00000070: 7849 1c3f 45f2 953a a678 3b3f 22ba 473e
00000080: 0ab7 9ebd 8765 443e f4ad a7be 586d 7dbe
00000090: ac83 93bd 2bec 84be 0640 c6be 1e9c fe3d
000000a0: 94ec 68be 4ad1 6e3e 387d ff3e 8fec e23d
000000b0: a2f9 c6be 2972 e33d ed67 81be dff6 10bf
000000c0: 1446 803d fb52 0ebf 57b5 1fbe 1c54 af3e
000000d0: d56c cebd 352d cfbe 0aed a1be d34b b6be
000000e0: 3d3e ebbe 9452 4cbf 9365 ac3d 5671 093f
000000f0: 85bd e7be 1151 dc3e 147b 8bbb 1a02 04bf
00000100: 50a8 b4bd 1def 91be 2385 88bd 5ad0 873d
00000110: 766e 743e 0f8a a9be b788 ac3e 8774 b2be
00000120: c6e5 843d 7039 bbbe 9cf2 f83d 2970 813d
00000130: d9ac 903e af59 4fbd bcfb 9e3e 0fdb 29be
00000140: 488d 7bbb ccbc d1bd 9469 2fbe 0b1b 163e
00000150: 817f a23e 8e6a 853e f538 bc3d 0ea0 603e
00000160: 716a c1be bc70 8f3e da44 78bc 4d9f 7dbd
00000170: f742 853e 07c1 b2be 0132 083e 4513 84be
00000180: 1e1b 803e b15a c83e b5bf 1b3e cd58 1abd
00000190: 5143 093d e75c 29bf 51ef 143e b7e4 813d
000001a0: b066 793e 0e37 923d 0487 d8ba 8334 013e
000001b0: 8900 9abe 149c d43d aca6 333f 1781 843e
000001c0: c9f8 8abe cc33 1d3f 9550 10be 8333 8a3d
000001d0: 96c9 15be d8ee dc3c 30be 073e 7541 0cbf
000001e0: 395d a13d ffa9 a03e ceb4 12be 4064 3c3d
000001f0: b228 0f3f 9e34 2b3f 0ab9 1b3d dbd4 0dbf
00000200: de06 a03e 9245 b13c 6a2e b53e 858d 4cbe
00000210: defd 803e c857 e2be b66b 1dbe 71ac 4dbe
00000220: 20ef 573e b517 3b3f ab0e a63e 9edd f2bd
00000230: f9a8 c6be 2e1a cd3c c143 92bd 5f80 e6bd
00000240: 7ace 04bf 113e 10bd 13d6 65bd 9104 0d3e
00000250: 68d1 45be e3e9 2b3f 7f9b 8bbe 1826 853e
00000260: 327e e8be 67ba dabd 85b1 56be 5e22 193f
00000270: fec9 023e 9703 3c3d fb72 aa3d e08d ab3e
00000280: 3040 04bf d624 b3be f514 7c3e a398 cb3e
00000290: f993 03bf 65e5 9fbd 880d 263f d4a7 a13d
000002a0: 1c3b f5bd ed79 b23e ecb4 6ebd f082 d23d
000002b0: a936 b0be c764 2bbe c964 29be d63c 0bbe
000002c0: f27a e8be c5a5 dc3c 6479 aebc 8099 3ebd
000002d0: 0590 08bf 1ce1 663e 2a38 3e3d 9c3d c6be
000002e0: f524 2bbd 07c1 6c3e 2fdd ad3e f1d9 3cbd
000002f0: 9d23 0dbe 81a6 0ebf 4b78 b03e d735 893e
00000300: f31e d03e 2a95 b6bd f743 babe cc08 8e3e
00000310: d3f0 e93e 0660 243f f6ef 42bf f3cf 063f
00000320: 9a64 16be 40e2 84be 51f6 23bf db56 973d
00000330: 2fb3 21be dfc7 193d 9268 633f 886d 933f
00000340: 5cfa 523f 9e98 71be 446c f0be a9e3 20bf
00000350: a351 983e d3ed 80bd bb02 7dbe 251f 043f
00000360: c304 26bf ea83 3a3e b983 63be 96dd 71be
00000370: 874e b83d 9521 8cbe 4913 763f 1b65 8c3e
00000380: c559 37bf 8a0c 153f 25d9 223f 639c ba3d
00000390: d754 68bf d0ec 343f dd24 08bf 6b0d eb3d
000003a0: c5f4 fabe fad6 92be 181e 933e 32d2 b4bb
000003b0: 3c6f 193e 8811 133f ee61 253f 6962 363d
000003c0: 7142 0abe 7fde aebe f8f7 39bf 9a9a bbbe
000003d0: b49b 4d3f bb37 86be 1860 3dbd 2d61 a93d
000003e0: 1a2e 18be d184 963e c823 a1be 2d46 d33d
000003f0: 2e6e 94be decc 8d3e 4b4b 173f f6ce fa3e

lstm.bias_ih_l0 f4 [800]
-0.12643717 0.06906081 0.38554388 -0.03009585 0.09817362 0.22856349 0.26769984 0.56269217
0.3567629 0.45044377 0.46710783 0.3249477 0.3512245 0.38922405 0.33018467 0.4140983
0.36911032 0.39803138 -0.112268575 -0.103053324 0.3836874 0.44805017 0.37340343 0.16320731
0.13107704 0.48200032 0.13934955 0.27190605 -0.10994941 0.36897567 0.33459064 0.10030009
0.33257565 0.4665407 0.32479608 -0.2534198 0.38366094 0.17603202 0.44047695 0.2001917
0.20938565 0.1967408 0.43163908 0.23239803 0.26785877 0.37568656 -0.07426953 0.4722383
0.44776404 -0.1405229 -0.20300618 0.31669062 0.31308782 -0.23349997 0.39273748 0.3981743
0.24140692 -0.009521131 -0.14766946 0.4962044 0.40748543 -0.010558824 -0.3201984 0.293721
0.18298887 0.2388268 -0.16525279 0.6487388 0.19605274 0.40789127 0.3055777 -0.46388456
-0.11552935 0.60465974 0.31427982 0.18045914 -0.20400596 -0.31793317 0.45241687 0.048328575
0.42587513 -0.009580544 0.5842921 0.004620655 -0.069730364 0.36468735 -0.08987427 0.012540537
0.06808372 0.11526939 -0.13410565 -0.2577963 0.21375911 0.36737257 -0.13154306 0.32728273
0.16936135 0.37571558 -0.15161067 -0.09502661 0.23982026 -0.043994695 -0.30700004 0.002920209
0.473545 0.20339982 0.37498084 0.23166496 0.3973201 0.46436593 0.25878042 0.3426547
0.018149795 0.41264397 0.15479848 0.34802675 0.30589914 0.3712592 0.30202094 0.48705548
0.30407277 0.3391537 0.09903965 -0.30181685 0.42379183 0.24902102 0.1274852 0.31022793
0.27689582 0.44419867 0.4358797 0.33173248 0.14293191 0.058565192 0.33605605 0.15712373
-0.11284573 0.11857919 -0.13433595 0.18624736 -0.09221626 -0.1113635 0.34624118 0.17423525
0.30144313 0.17245856 -0.14503793 0.07939143 -0.270108 -0.12946513 0.008358868 0.41343698
0.45333847 0.25463715 0.27543122 -0.3340441 0.22053872 -0.19071306 0.33074778 -0.31597707
-0.3255743 0.18061864 0.38557932 0.40486112 0.4343229 -0.14041056 0.4628502 -0.03318336
0.3238415 0.1955214 -0.20623294 -0.018490525 0.23872527 0.48050088 0.17515568 0.10463726
0.12875769 -0.18705122 0.42396116 0.051389597 0.2987595 -0.062069837 0.2395878 0.062485162
0.3533885 -0.08208006 0.28852385 0.47699663 -0.25890216 0.3321798 0.45346752 0.08994838
0.06092939 0.33565378 0.34129357 -0.39653158 0.42293406 -0.11326236 0.1452752 0.8993
-0.18660408 0.03083246 -0.31099856 0.29816028 0.14705561 0.21212655 -0.055662543 0.25693026
-0.028616449 0.19149867 0.19597884 0.20148888 0.24518526 0.17752188 0.25690073 0.2245003
0.25900385 0.18470518 -0.5025653 -0.08225292 0.30311042 0.11143125 0.12745732 0.08522587
0.2562547 0.18982708 0.17325519 0.12349644 0.051175628 0.082067385 0.13176462 -0.0832037
0.23731957 0.06888958 0.26946715 -0.24913174 0.18002462 0.17486475 0.1869157 0.074422725
0.14671963 0.06634953 -0.07304364 -0.44966504 0.277399 0.22448482 -0.20179312 0.31785756
0.2977892 0.12792736 -0.31111872 0.093806885 0.29161587 -0.36518407 0.14968158 0.026472252
00000000: bf78 01be c16f 8d3d 0266 c53e 928b f6bc
00000010: 400f c93d 8c0c 6a3e f40f 893e 980c 103f
00000020: a0a9 b63e 91a0 e63e c228 ef3e 8c5f a63e
00000030: b3d3 b33e 6048 c73e f70d a93e b104 d43e
00000040: 07fc bc3e c5ca cb3e 11ed e5bd 9f0d d3bd
00000050: ad72 c43e d566 e53e bc2e bf3e d11f 273e
00000060: 0f39 063e bfc8 f63e a6b1 0e3e 4537 8b3e
00000070: 282d e1bd 61ea bc3e 774f ab3e 226a cd3d
00000080: 5b47 aa3e 6cde ee3e ac4b a63e 3dc0 81be
00000090: 356f c43e bd41 343e 3286 e13e 0eff 4c3e
000000a0: 3169 563e 6c76 493e ccff dc3e c0f9 6d3e
000000b0: c924 893e fd59 c03e a01a 98bd 38c9 f13e
000000c0: 5441 e53e 3ce5 0fbe dae0 4fbe 4625 a23e
000000d0: 0c4d a03e 9e1a 6fbe e314 c93e 80dd cb3e
000000e0: 6033 773e 85fe 1bbc aa36 17be 810e fe3e
000000f0: eea1 d03e ebfe 2cbc 0bf1 a3be 9962 963e
00000100: 6f61 3b3e 038f 743e 0738 29be bf13 263f
00000110: 0dc2 483e 20d7 d03e ae74 9c3e 4782 edbe
00000120: a79a ecbd fbca 1a3f 49e9 a03e 48ca 383e
00000130: f0e6 50be 23c8 a2be 2fa3 e73e 2ff4 453d
00000140: 4e0c da3e b7f7 1cbc 2b94 153f dd68 973b
00000150: cbce 8ebd 4db8 ba3e 0010 b8bd d376 4d3c
00000160: 7a6f 8b3d 5c12 ec3d fe52 09be e0fd 83be
00000170: abe3 5a3e 4218 bc3e 39b3 06be 9a91 a73e
00000180: 106d 2d3e cb5d c03e d43f 1bbe 509d c2bd
00000190: 7193 753e c833 34bd 1c2f 9dbe fa60 3f3b
000001a0: 7e74 f23e 0b48 503e 7dfd bf3e 9439 6d3e
000001b0: 8a6d cb3e 5fc1 ed3e de7e 843e 7070 af3e
000001c0: e1ae 943c 1246 d33e 7e83 1e3e 9030 b23e
000001d0: d09e 9c3e b015 be3e 7da2 9a3e 565f f93e
000001e0: 6daf 9b3e 8ea5 ad3e 4dd5 ca3d bd87 9abe
000001f0: 3efb d83e 5eff 7e3e 7b8b 023e 32d6 9e3e
00000200: 4ac5 8d3e 026e e33e a02b df3e d7d8 a93e
00000210: be5c 123e 0ee2 6f3d 8a0f ac3e 0be5 203e
00000220: a91b e7bd a5d9 f23d 5d8f 09be a1b7 3e3e
00000230: e1db bcbd 8c12 e4bd 8646 b13e ba6a 323e
00000240: c156 9a3e fa98 303e d384 14be f997 a23d
00000250: 994b 8abe 8292 04be a2f3 083c 03ae d33e
00000260: fb1b e83e cd5f 823e 5205 8d3e d407 abbe
00000270: e7d4 613e 494a 43be c657 a93e bfc7 a1be
00000280: adb1 a6be 18f4 383e a76a c53e f549 cf3e
00000290: 925f de3e c9c7 0fbe b4fa ec3e 46eb 07bd
000002a0: 8ece a53e c336 483e ba2e 53be 7179 97bc
000002b0: 6674 743e 3604 f63e 035c 333e 0f4c d63d
000002c0: 0ed9 033e 5b8a 3fbe 7011 d93e e67d 523d
000002d0: 01f7 983e f13c 7ebd 8156 753e 71f0 7f3d
000002e0: 56ef b43e 9719 a8bd 66b9 933e e738 f43e
000002f0: d38e 84be 7913 aa3e e52c e83e db36 b83d
00000300: 1991 793d d0da ab3e 08be ae3e 3006 cbbe
00000310: d08a d83e 19f6 e7bd 06c3 143e 8638 663f
00000320: 2415 3fbe 5b94 fc3c 343b 9fbe 77a8 983e
00000330: bf95 163e b437 593e 68fe 63bd 5d8c 833e
00000340: 0b6d eabc 3a18 443e adae 483e 1a53 4e3e
00000350: d811 7b3e 4cc8 353e 7e88 833e 68e3 653e
00000360: 279c 843e 5b23 3d3e 1fa8 00bf 3874 a8bd
00000370: 4a31 9b3e 1136 e43d 2c84 023e e78a ae3d
00000380: d133 833e 0862 423e cf69 313e b4eb fc3d
00000390: 899d 513d f212 a83d 4eed 063e b466 aabd
000003a0: e703 733e fb15 8d3d 99f7 893e 641c 7fbe
000003b0: 6058 383e bf0f 333e d466 3f3e f16a 983d
000003c0: ac3d 163e 43e2 873d e797 95bd 7f3a e6be
000003d0: 3e07 8e3e 59df 653e dba2 4ebe 3abe a23e
000003e0: d377 983e 64ff 023e f44a 9fbe d31d c03d
000003f0: ad4e 953e 68f9 babe 2146 193e 56dc d83c

lstm.bias_hh_l0 f4 [800]
-0.16140269 -0.0022352883 0.37585527 -0.04908888 0.07207141 0.21778236 0.30231184 0.583516
0.26354215 0.47371328 0.52777165 0.26232615 0.32351258 0.4132895 0.27562886 0.41377613
0.323791 0.34114808 -0.13616553 -0.20080961 0.33233127 0.41005337 0.50204766 0.06650359
0.19119897 0.6075518 0.10430216 0.20701312 -0.05974693 0.3467093 0.2850884 0.044319514
0.28804335 0.42770877 0.34076285 -0.16178374 0.33639368 0.20685326 0.45457998 0.1628686
0.16317096 0.200298 0.44213375 0.2630998 0.23563972 0.45428145 -0.07015382 0.40244746
0.40230864 -0.19141395 -0.27392995 0.27860355 0.3095922 -0.12733929 0.40684825 0.38972887
0.25375807 -0.008843888 -0.06598287 0.50473034 0.3252217 0.08920118 -0.3084028 0.33952242
0.22396955 0.28361547 -0.267922 0.717507 0.30814523 0.37530336 0.30044264 -0.5454035
-0.11080815 0.48550323 0.29740596 0.28367624 -0.18721844 -0.34384075 0.5111513 0.01490723
0.4451795 0.07936322 0.4839661 0.033513527 -0.07802262 0.40197465 -0.14074984 -0.055436056
0.020165281 0.20342728 -0.12931351 -0.35425907 0.12140386 0.38783422 -0.15175486 0.22760947
0.20943625 0.32529178 -0.14856036 -0.11348424 0.12732466 -0.008995376 -0.30404133 0.05724762
0.51453704 0.10211294 0.49520764 0.21673915 0.37643653 0.5298275 0.18816072 0.3315523
0.075299054 0.38571844 0.16497287 0.25707424 0.3122824 0.34628257 0.29941714 0.40314972
0.29930076 0.23958558 0.031736434 -0.4048685 0.35612264 0.32595283 0.22184007 0.3022094
0.30306435 0.5086325 0.5004382 0.42699325 0.11722504 0.024268445 0.45011044 0.27312264
-0.14584336 0.09478896 -0.23949645 0.31325725 -0.03478725 -0.1270508 0.34860533 0.15494612
0.34872147 0.13607244 -0.13020933 0.006852141 -0.256849 -0.09050758 -0.059690226 0.4220273
0.47119418 0.35316902 0.26810697 -0.27120802 0.18223087 -0.16987324 0.3507445 -0.31675246
-0.3792931 0.20779425 0.37321267 0.33303204 0.3498 -0.06874056 0.38598457 0.06306819
0.30655563 0.2121901 -0.28660196 0.027071914 0.2255953 0.5557852 0.2228675 0.01656932
0.13587497 -0.22006531 0.44514984 0.11862239 0.3321434 -0.02174518 0.20230284 0.0032751132
0.4123719 -0.04029016 0.35130906 0.50293297 -0.15294862 0.39211175 0.47733825 0.18259639
0.06511671 0.25603566 0.36766788 -0.35466355 0.40064296 -0.13065241 0.08001511 0.90124476
-0.19622256 0.019785827 -0.279543 0.27721295 0.12274059 0.11440412 -0.14726274 0.18652296
-0.058464598 0.12953009 0.24269938 0.29146576 0.23854181 0.15022124 0.22709678 0.17306048
0.26444417 0.12645927 -0.54851156 -0.08220264 0.42505082 0.1086489 0.11895836 0.16557147
0.18821059 0.16536285 0.13157251 0.114917845 0.017918443 0.040211793 0.20722632 -0.0026224721
0.18828925 -0.008851466 0.28055325 -0.17788066 0.2669653 0.122115076 0.20102735 -0.0033031933
0.1733623 -0.0079740845 -0.0030175515 -0.4846657 0.31444347 0.13735895 -0.29384008 0.2048548
0.31828588 0.07768804 -0.3981143 0.10921081 0.3263203 -0.34042642 0.20911083 0.10030895
00000000: bf46 25be ea7d 12bb 1a70 c03e 6c11 49bd
00000010: 2d9a 933d 5702 5f3e 9ec8 9a3e 4e61 153f
00000020: ffee 863e 8c8a f23e 0b1c 073f 9d4f 863e
00000030: 71a3 a53e ae9a d33e 3a1f 8d3e 77da d33e
00000040: efc7 a53e f6aa ae3e fa6e 0bbe 09a1 4dbe
00000050: 5327 aa3e 84f2 d13e 3286 003f 0933 883d
00000060: aac9 433e 8488 1b3f 5f9c d53d 3ffb 533e
00000070: 32b9 74bd e283 b13e 1bf7 913e 6188 353d
00000080: 6b7a 933e a5fc da3e 7878 ae3e a3aa 25be
00000090: cb3b ac3e 57d1 533e b5be e83e 07c7 263e
000000a0: 4a16 273e eb1a 4d3e 5b5f e23e 04b5 863e
000000b0: 8a4b 713e 9497 e83e ceac 8fbd 980d ce3e
000000c0: 66fb cd3e 0502 44be 8c40 8cbe 20a5 8e3e
000000d0: de82 9e3e 3b65 02be 6a4e d03e 8b8a c73e
000000e0: 94ec 813e f4e5 10bc 0722 87bd 0236 013f
000000f0: 7583 a63e 1caf b63d f9e6 9dbe e2d5 ad3e
00000100: 4658 653e 0c36 913e 132d 89be 8aae 373f
00000110: 36c5 9d3e c327 c03e 9ed3 993e 909f 0bbf
00000120: 62ef e2bd e193 f83e 9845 983e 033e 913e
00000130: 31b6 3fbe e50b b0be d0da 023f 743d 743c
00000140: 91ee e33e 2f89 a23d 68ca f73e 7b45 093d
00000150: 53ca 9fbd 9fcf cd3e ba20 10be eb10 63bd
00000160: a931 a53c 3e4f 503e c36a 04be 7261 b5be
00000170: 96a2 f83d 3592 c63e a065 1bbe 7512 693e
00000180: 7576 563e a58c a63e 3520 18be 6d6a e8bd
00000190: 6561 023e 5761 13bc 4eab 9bbe 7b7c 6a3d
000001a0: b3b8 033f 9720 d13d db8b fd3e def0 5d3e
000001b0: 4abc c03e c6a2 073f 34ad 403e 39c1 a93e
000001c0: 6436 9a3d e37c c53e a6ee 283e 3c9f 833e
000001d0: 7be3 9f3e f34b b13e 344d 993e a469 ce3e
000001e0: f33d 993e ec55 753e 10fe 013d ed4a cfbe
000001f0: b555 b63e 4ae3 a63e 0b2a 633e 31bb 9a3e
00000200: 402b 9b3e bd35 023f b81c 003f dc9e da3e
00000210: af13 f03d 9ece c63c e074 e63e bbd6 8b3e
00000220: f657 15be b720 c23d 8f3e 75be 4163 a03e
00000230: 137d 0ebd 9b19 02be 667c b23e 32aa 1e3e
00000240: 9f8b b23e 9356 0b3e 9855 05be ed87 e03b
00000250: b681 83be 0a5c b9bd bd7d 74bd f613 d83e
00000260: 5d40 f13e 92d2 b43e 5145 893e c7db 8abe
00000270: bb9a 3a3e 40f3 2dbe c894 b33e 612d a2be
00000280: b532 c2be 04c8 543e bb15 bf3e 2d83 aa3e
00000290: fc18 b33e dac7 8cbd c59f c53e e529 813d
000002a0: dcf4 9c3e 5d48 593e 7ebd 92be ebc5 dd3c
000002b0: 7402 673e f047 0e3f 6137 643e 62bc 873c
000002c0: cf22 0b3e cd58 61be aeea e33e 4cf0 f23d
000002d0: b30e aa3e f322 b2bc 7a28 4f3e 48a3 563b
000002e0: 6922 d33e 4b07 25bd c8de b33e 37c0 003f
000002f0: 909e 1cbe dfc2 c83e ae65 f43e 8cfa 3a3e
00000300: e95b 853d 1b17 833e f73e bc3e 7696 b5be
00000310: 1321 cd3e bfc9 05be f6de a33d fab7 663f
00000320: 91ee 48be e315 a23c 4320 8fbe dbee 8d3e
00000330: 6b5f fb3d b54c ea3d 0bcc 16be e0ff 3e3e
00000340: 9378 6fbd 89a3 043e 3086 783e 003b 953e
00000350: 4e44 743e 99d3 193e 0f8c 683e c436 313e
00000360: 3a65 873e 8a7e 013e 416b 0cbf dc59 a8bd
00000370: 43a0 d93e 5183 de3d 71a0 f33d 918b 293e
00000380: 47ba 403e e154 293e f2ba 063e 0c5a eb3d
00000390: b3c9 923c 1fb5 243d 2333 543e c8dd 2bbb
000003a0: e6ce 403e bd05 11bc ada4 8f3e 5926 36be
000003b0: adaf 883e 7817 fa3d 1dda 4d3e 637a 58bb
000003c0: e385 313e bca5 02bc 1dc2 45bb 1a26 f8be
000003d0: bcfe a03e d3a7 0c3e 3572 96be 75c5 513e
000003e0: 5ef6 a23e e81a 9f3d a3d5 cbbe eba9 df3d
000003f0: 7413 a73e 5f4c aebe 2621 563e c76e cd3d

linear.weight f4 [1, 200]
1.3607522 -0.6302409 -1.1670371 9.800314 8.192383 4.9978843 -2.371342 3.9352198
-4.172538 -5.580632 -0.16631426 -9.357963 5.4789696 -3.5924263 3.332436 -5.313523
-9.693101 -4.960129 -0.577892 -7.6383295 -11.196222 -4.4793744 7.942956 3.7362366
1.7343849 4.582942 -1.9942795 -9.497248 -19.682976 -2.6019444 -15.575926 -2.578176
3.2102172 3.1694043 8.318678 7.9742856 5.3223624 -0.39100915 8.73178 -2.6856136
2.8880408 0.20808262 -9.74827 -2.1929336 15.131872 -9.556498 8.307307 10.291088
6.5607553 19.385887 4.456989 -2.4984002 3.6284385 9.015696 10.798477 5.598803
3.1095743 19.54153 1.3942609 -2.4151142 7.4000216 -11.824353 -0.6534148 16.285818
-0.20534205 5.221973 2.4937127 6.663845 -2.4564269 10.4659 -3.164396 8.024289
2.751294 6.892031 1.8997655 3.9490376 -3.2477996 3.3210437 1.6661673 6.6625013
8.107212 3.5739214 -0.14219657 -2.6194308 -1.8069803 0.475949 -2.6594229 3.2641482
13.827206 0.9352788 1.6340175 4.2036395 -4.8750267 9.933806 -6.868142 6.544367
-2.64138 -6.484248 -4.0918384 2.1103292 2.8040447 19.642914 -1.6807042 5.708659
-6.7480507 -3.521278 -1.6523464 -2.1247237 2.6347587 -7.5079226 -5.007077 -4.2422624
-5.061453 -7.0262012 -1.2963315 4.37024 5.073875 -4.6504726 -3.6152635 12.313386
-3.3083081 -0.45213437 2.4512513 -2.3558967 -9.612251 -10.704244 -3.59696 4.21574
-6.0689855 -4.546725 -9.217489 -2.9799588 -7.1358705 12.625611 3.3938975 6.2171936
-2.143363 -15.645647 -3.1645832 -0.56878036 4.9107385 0.14191967 3.5619473 3.3910348
8.272552 7.840917 -1.1024004 -0.34565586 3.9033244 -18.33246 6.3352056 -18.544472
20.632288 -0.15582706 -0.9236222 -13.373128 -3.995349 3.811479 2.3672178 -8.503896
5.7105203 5.032041 -6.274108 -6.0838284 5.8007827 -1.470425 -7.547893 -0.9063845
2.0871124 -2.1294785 -6.457503 -2.742069 10.497593 1.7869234 0.09663849 1.7131884
4.0136814 3.9066665 -5.53081 -5.2678657 8.056915 -1.82349 -0.31095117 -4.2063565
-0.21103401 -4.328645 -2.4397748 6.164267 2.4685497 4.0699778 -18.502066 -2.488099
-4.905538 5.3206887 6.5356803 -3.6748614 -16.88406 -17.84078 8.032165 -2.6698232
00000000: 212d ae3f 7857 21bf 7961 95bf 16ce 1c41
00000010: 0014 0341 abee 9f40 11c4 17c0 a4da 7b40
00000020: 6e85 85c0 8a94 b2c0 494e 2abe 37ba 15c1
00000030: b853 af40 50ea 65c0 a246 5540 6108 aac0
00000040: f116 1bc1 60b9 9ec0 bbf0 13bf 326d f4c0
00000050: ba23 33c1 0957 8fc0 b22c fe40 801e 6f40
00000060: 5300 de3f 76a7 9240 8d44 ffbf baf4 17c1
00000070: bc76 9dc1 4286 26c0 fe36 79c1 d600 25c0
00000080: 3374 4d40 85d7 4a40 4e19 0541 592d ff40
00000090: cb50 aa40 5a32 c8be 5fb5 0b41 18e1 2bc0
000000a0: a9d5 3840 9c13 553e eaf8 1bc1 0659 0cc0
000000b0: 261c 7241 6ae7 18c1 bbea 0441 4ca8 2441
000000c0: b5f1 d140 4c16 9b41 a79f 8e40 cae5 1fc0
000000d0: 5638 6840 4a40 1041 90c6 2c41 6529 b340
000000e0: 4403 4740 0e55 9c41 2477 b23f 3b91 1ac0
000000f0: facc ec40 8d30 3dc1 3146 27bf 5b49 8241
00000100: 3045 52be 671a a740 fd98 1f40 383e d540
00000110: 1936 1dc0 5474 2741 7785 4ac0 7d63 0041
00000120: 3315 3040 858b dc40 842b f33f 08bd 7c40
00000130: f3db 4fc0 fb8b 5440 f844 d53f 3633 d540
00000140: 24b7 0141 21bb 6440 fa9b 11be c1a4 27c0
00000150: 214b e7bf 96af f33e fc33 2ac0 cee7 5040
00000160: 3c3c 5d41 6e6e 6f3f 7c27 d13f 3784 8640
00000170: 3800 9cc0 dff0 1e41 d2c7 dbc0 746b d140
00000180: 5f0c 29c0 f67e cfc0 57f0 82c0 a20f 0740
00000190: 7875 3340 b024 9d41 5121 d7bf 56ad b640
000001a0: 08f0 d7c0 9e5c 61c0 1680 d3bf 79fb 07c0
000001b0: e39f 2840 e740 f0c0 fa39 a0c0 9dc0 87c0
000001c0: 6cf7 a1c0 a4d6 e0c0 31ee a5bf 02d9 8b40
000001d0: 2f5d a240 acd0 94c0 7a60 67c0 a103 4541
000001e0: 52bb 53c0 287e e7be 4de1 1c40 03c7 16c0
000001f0: c8cb 19c1 9544 2bc1 9834 66c0 58e7 8640
00000200: 2135 c2c0 c57e 91c0 d67a 13c1 a5b7 3ec0
00000210: 0d59 e4c0 8102 4a41 9e35 5940 40f3 c640
00000220: dc2c 09c0 9254 7ac1 8888 4ac0 979b 11bf
00000230: c524 9d40 6453 113e f2f6 6340 b706 5940
00000240: 5f5c 0441 cbe8 fa40 751b 8dbf cef9 b0be
00000250: 11d0 7940 e1a8 92c1 01ba ca40 145b 94c1
00000260: ed0e a541 2191 1fbe 8172 6cbf 55f8 55c1
00000270: ccb3 7fc0 46ef 7340 7f80 1740 f50f 08c1
00000280: 95bc b640 7b06 a140 7ec5 c8c0 b9ae c2c0
00000290: 03a0 b940 e336 bcbf 5788 f1c0 d108 68bf
000002a0: 4093 0540 6049 08c0 dda3 cec0 0f7e 2fc0
000002b0: 24f6 2741 e8b9 e43f 67ea c53d c249 db3f
000002c0: 1470 8040 d306 7a40 65fc b0c0 5b92 a8c0
000002d0: 20e9 0041 1f68 e9bf fe34 9fbe 799a 86c0
000002e0: 4d19 58be 4384 8ac0 4525 1cc0 ad41 c540
000002f0: b8fc 1d40 423d 8240 3b04 94c1 043d 1fc0
00000300: 2bfa 9cc0 1543 aa40 4b24 d140 ee30 6bc0
00000310: 8e12 87c1 ebb9 8ec1 bf83 0041 62de 2ac0
